…
Found 3408 files belonging to 28 classes.
Using 2727 files for training.
Found 3408 files belonging to 28 classes.
Using 681 files for validation.
Class names:
['A', 'B', 'C', 'D', 'E', 'F', 'G', 'H', 'I', 'J', 'K', 'L', 'M', 'N', 'O', 'P', 'Q', 'R', 'S', 'T', 'U', 'V', 'W', 'X', 'Y', 'Z', 'del', 'space']
Base model layer count: 155
Model: "model"
_________________________________________________________________
 Layer (type)                Output Shape              Param #
=================================================================
 input_2 (InputLayer)        [(None, 160, 160, 3)]     0

 sequential (Sequential)     (None, 160, 160, 3)       0

 tf.math.truediv (TFOpLambd  (None, 160, 160, 3)       0
 a)

 tf.math.subtract (TFOpLamb  (None, 160, 160, 3)       0
 da)

 mobilenetv2_1.00_160 (Func  (None, 1280)              2257984
 tional)

 dropout (Dropout)           (None, 1280)              0

 outputs (Dense)             (None, 28)                35868

=================================================================
Total params: 2293852 (8.75 MB)
Trainable params: 35868 (140.11 KB)
Non-trainable params: 2257984 (8.61 MB)
_________________________________________________________________
Trainable variables in our model: 2
Epoch 1/64
43/43 [==============================] - 22s 444ms/step - loss: 3.0150 - accuracy: 0.2090 - val_loss: 2.1879 - val_accuracy: 0.3642
…
